…
0549625228,"user_tz":-540,"elapsed":5339,"user":{"displayName":"박윤하","photoUrl":"","userId":"15387206305029425112"}},"colab":{"base_uri":"https://localhost:8080/","height":798}},"source":["model = create_model() # 모델 함수를 model로 변경\n","model.summary() # 모델에 대한 요약 출력해줌"],"execution_count":10,"outputs":[{"output_type":"stream","text":["Model: \"sequential\"\n","_________________________________________________________________\n","Layer (type)                 Output Shape              Param #   \n","=================================================================\n","conv2d (Conv2D)              (None, 256, 256, 64)      1792      \n","_________________________________________________________________\n","max_pooling2d (MaxPooling2D) (None, 128, 128, 64)      0         \n","_________________________________________________________________\n","conv2d_1 (Conv2D)            (None, 128, 128, 64)      36928     \n","_________________________________________________________________\n","max_pooling2d_1 (MaxPooling2 (None, 64, 64, 64)        0         \n","_________________________________________________________________\n","conv2d_2 (Conv2D)            (None, 64, 64, 64)        36928     \n","_________________________________________________________________\n","max_pooling2d_2 (MaxPooling2 (None, 32, 32, 64)        0         \n","_________________________________________________________________\n","conv2d_3 (Conv2D)            (None, 32, 32, 64)        36928     \n","_________________________________________________________________\n","max_pooling2d_3 (MaxPooling2 (None, 16, 16, 64)        0         \n","_________________________________________________________________\n","conv2d_4 (Conv2D)            (None, 16, 16, 64)        36928     \n","_________________________________________________________________\n","max_pooling2d_4 (MaxPooling2 (None, 8, 8, 64)          0         \n","_________________________________________________________________\n","conv2d_5 (Conv2D)            (None, 8, 8, 64)          36928     \n","_________________________________________________________________\n","max_pooling2d_5 (MaxPooling2 (None, 4, 4, 64)          0         \n","_________________________________________________________________\n","flatten (Flatten)            (None, 1024)              0         \n","_________________________________________________________________\n","dense (Dense)                (None, 256)               262400    \n","_________________________________________________________________\n","dropout (Dropout)            (None, 256)               0         \n","_________________________________________________________________\n","dense_1 (Dense)              (None, 256)               65792     \n","_________________________________________________________________\n","dropout_1 (Dropout)          (None, 256)               0         \n","_________________________________________________________________\n","dense_2 (Dense)              (None, 6)                 1542      \n","=================================================================\n","Total params: 516,166\n","Trainable params: 516,166\n","Non-trainable params: 0\n","_________________________________________________________________\n"],"name":"stdout"}]},{"cell_type":"code","metadata":{"id":"bQfFN56j64Gt","colab_type":"code","outputId":"496bad4d-2660-486b-b54c-84809fed875e","executionInfo":{"status
…
